model_weights/ppsp_weights.pth (torch, 229715 bytes, 94 tensors)

conv_block1.c.weight f4 [32, 1, 3]
00000000: dd1f d33e 9d03 eebd 3851 94be b7f7 c2bc
00000010: 6873 ed3d d51d 8c3e 0644 82be a5ec 833e
00000020: b1fc aabe 2159 c1bd 8384 ec3d 2cda 833c
00000030: 886d 93be 9ce5 cabb 1638 b63e 1a54 413c
00000040: 1ccf 623e 0f09 9e3e f03b cf3e 413c 923e
00000050: 28e3 ebbe 3f82 abbe b738 babe a7da f03e
00000060: d976 2abc 706f 34be 437f c6be fe16 113f
00000070: 70d3 64be 6184 a2be a6d6 8abe 0526 d33c
00000080: d526 343e ceba ddbe 219a 7ebd 6c17 81be
00000090: 6049 9d3e d326 a9be 883b 253d e6fc 80be
000000a0: 7f97 8bbd a45a c6be e609 f23e cfac 05bf
000000b0: 67c7 c43e 9ee8 08be b173 9abe 5e2a 323d
000000c0: f1a4 c23e d7a2 f1bd 403b 303e b7b1 39bd
000000d0: 584c 35bc b3ed 803d a82c 063f a5c8 a8be
000000e0: 7a54 c0be ca8b f43e 662d b53e 2270 1abf
000000f0: 7650 ee3e 15a1 e7be d40b 0dbd e0cf 8d3d
00000100: 287b 053f 4fe8 0bbf 3691 14be 9e6c 813e
00000110: 13dc 53bd 83e3 ee3e 385d cd3e 867c abbe
00000120: 11e4 52be 80db 84bd 1fbb acbe 10fa b63e
00000130: 0e61 d53d c9d1 da3e c376 143c de9e 2f3e
00000140: 52c5 0bbe 038d c4be b2db ba3e 1627 2b3e
00000150: eccf a53e 76c2 883d 604d be3e 234d 4bbe
00000160: 7fd7 bf3d 4307 5e3e 414a f13e 83ff cf3e
00000170: 7b53 ffbe 9167 ac3d 5064 d5be e29c e83e
0.41235247 -0.11621783 -0.28968215 -0.02379976 0.115942776 0.2736651 -0.25442523 0.25766483
-0.33395913 -0.09440828 0.11548712 0.016095243 -0.28794503 -0.0061919224 0.35589665 0.0117998365
0.22149318 0.30866286 0.40475416 0.28561595 -0.46071744 -0.33497807 -0.36371395 0.47041818
-0.010404312 -0.17620635 -0.38768968 0.5667571 -0.22346282 -0.31741622 -0.2711689 0.025774965
0.17592938 -0.43306583 -0.062158708 -0.25213182 0.30720043 -0.33037433 0.040339977 -0.25192946
-0.06816005 -0.38741028 0.47273177 -0.5221681 0.38433382 -0.13369986 -0.3016639 0.043497436
0.38016465 -0.11798637 0.17210102 -0.045335498 -0.011065565 0.062953375 0.5241189 -0.3296558
-0.3756445 0.477629 0.353862 -0.6032735 0.46545762 -0.45240083 -0.03443511 0.06924415
0.52141047 -0.5465135 -0.14508519 0.2527818 -0.05172355 0.46657953 0.40110183 -0.3349344
-0.20594813 -0.06487179 -0.33736512 0.35737658 0.10418902 0.42738178 0.009061518 0.17150447
-0.1364949 -0.38388833 0.3649574 0.16714129 0.32385194 0.066777155 0.37168407 -0.19853644
0.093672745 0.21682458 0.47126964 0.40624627 -0.49868378 0.08418191 -0.41678095 0.45432192

conv_block1.c.bias f4 [32]
00000000: 1354 d2b8 d002 6a37 b345 83b7 bb2a a638
00000010: 0b90 5638 a7cb ca35 deea 2338 d0b9 1338
00000020: 4c1e 8037 3bb4 0ab9 7727 1eb8 107d 8237
00000030: 7feb 6eb9 eb23 d9b7 6011 f137 8a90 bcb6
00000040: 1653 8e37 51c2 253a a4b2 8bb8 7d27 9738
00000050: a3ac fe39 205b 2438 ccde 0339 26b9 5e36
00000060: 159a 9a37 ff32 fc38 7d23 a0b9 8fad b436
00000070: f1d1 2637 cef3 08b9 9a69 9138 a372 02b9
-0.000100292404 1.3948142e-05 -1.5648873e-05 7.923456e-05 5.1155726e-05 1.5109443e-06 3.9080966e-05 3.5220583e-05
1.5272897e-05 -0.00013227847 -3.770689e-05 1.5555444e-05 -0.00022785178 -2.5885141e-05 2.873753e-05 -5.619663e-06
1.6966409e-05 0.0006323206 -6.661311e-05 7.207596e-05 0.0004857528 3.9185514e-05 0.00012576132 3.3188348e-06
1.842998e-05 0.00012025795 -0.0003054402 5.384623e-06 9.943252e-06 -0.00013060795 6.9338086e-05 -0.00012440472

conv_block1.bn.weight f4 [32]
00000000: 967e 883f dce7 6a3f 583f 653f 68f2 753f
00000010: cd28 863f 0159 703f 83ec 723f 4d33 773f
00000020: f7fe 623f 54b3 903f fed0 613f cf5d 653f
00000030: e0e0 873f 4163 623f dda7 643f 23d0 573f
00000040: e212 6b3f 7f2b 8b3f 4fb2 743f 8bb6 7c3f
00000050: 7646 883f e234 7b3f fd36 763f c336 713f
00000060: f8b6 4b3f 7ee4 663f 0f06 613f 9991 763f
00000070: 5fb6 5b3f 3c78 793f 9b37 713f 3db3 773f
1.0663631 0.9176004 0.8954978 0.9607301 1.0481201 0.9388581 0.9489214 0.96562654
0.88670295 1.1304727 0.8820952 0.89596266 1.0615501 0.884327 0.8931864 0.84301966
0.9182569 1.0872649 0.9558458 0.9871604 1.0646503 0.9812757 0.96177655 0.94224185
0.79576063 0.901924 0.8789987 0.96315914 0.8582515 0.9744909 0.9422547 0.9675787

conv_block1.bn.bias f4 [32]
00000000: 20b8 cd3d 1f29 47bd 0732 403c 20b4 51bd
00000010: 4657 cabd 4a9f 9e3c b7c5 a6bc 04e0 933c
00000020: 25b6 553d cffe 2c3c ff2e 043d 3a31 d73d
00000030: 7836 5e3d a1ac ebbb ad7b dabd f5de 36bd
00000040: 648c 41bd e454 893c a7ce acbd d002 57b9
00000050: 8b96 843d 6127 993d 8390 8bbd a096 2dbd
00000060: 031e 003d 50c2 afbe f3a2 a9bc 31da dabb
00000070: 6998 3dbe ed14 d4bd c26f e4bd 1734 1abd
0.10044885 -0.0486232 0.011730677 -0.05119717 -0.09879927 0.019363064 -0.02035795 0.018051155
0.05217566 0.010558798 0.03227138 0.10507436 0.054251164 -0.00719221 -0.106681205 -0.044646222
-0.047253028 0.016764112 -0.08437853 -0.00020505046 0.06474026 0.07478214 -0.06814673 -0.042379975
0.03127862 -0.34327936 -0.020707583 -0.0066788425 -0.18515171 -0.10355554 -0.111541286 -0.037647333

conv_block1.bn.running_mean f4 [32]
00000000: 993a 1d3b b83f 143e 6355 05be 2822 783c
00000010: c15a cd3c 4eef 5c3e 1e6f b93d f116 bbbd
00000020: ce3d 69be ba64 263c 6abc debc 871c 97be
00000030: d770 d93b 3658 8fbe e7e3 073e 1e56 1ebe
00000040: 659e 2f3e c070 483b 6f41 8dbd fa80 b93d
00000050: dfcd 0cbc 070c 933c 1b40 c33c d1fc 573e
00000060: 2f18 77be e45f b43e dffc 793c 4103 733d
00000070: b470 9a3e c513 393d a010 1a3e 5458 473d
0.0023991226 0.14477432 -0.13020854 0.015144862 0.025067689 0.21575662 0.09054397 -0.09135235
-0.22777483 0.010155851 -0.027189452 -0.29513952 0.006635766 -0.27996987 0.13270532 -0.15462539
0.17150266 0.0030584782 -0.06897246 0.090578035 -0.008594005 0.017950071 0.023834279 0.21092536
-0.24130319 0.3522941 0.015258043 0.059329275 0.3016411 0.04518487 0.15045404 0.04866822

conv_block1.bn.running_var f4 [32]
00000000: c33f 0c3a 7a93 853b 3de7 503b 9fdf 8338
00000010: b74a 143a a3d7 123c ac0d 213b 2434 1e3b
00000020: a306 243c 6baf 643a 3890 ba39 0070 873c
00000030: ad22 0039 4455 733c d98d 5b3b 74cb 983b
00000040: 86ff b63b 5471 6e37 9aae ee3a ddaf 413b
00000050: 0574 bc39 55c7 223a 3c23 1c39 21f1 183c
00000060: aee1 343c 50a1 c03c 99d4 b538 c607 8b3a
00000070: d510 8d3c 5a77 173a 2435 b43b bf1b 2a3a
0.00053500774 0.0040764185 0.003187611 6.2882194e-05 0.00056568853 0.008962545 0.00245748 0.0024139965
0.010011348 0.0008723649 0.00035584136 0.016532898 0.00012219949 0.014851872 0.0033501296 0.0046629254
0.00558466 1.4212292e-05 0.0018209994 0.0029554286 0.00035944596 0.00062095124 0.00014890445 0.009334833
0.011040134 0.02351442 8.670352e-05 0.0010607175 0.01721994 0.00057779776 0.005499499 0.000648912

conv_block2.c.weight f4 [32, 32, 3]
00000000: a8fe 873d f399 acbd 9b16 04bd f73f 753d
00000010: cede 8ebd 57ba 0a3d 13b4 653d c3b3 54bd
00000020: 0a7b 833d f63e b93d 5a88 cebb b19a bebc
00000030: 4d94 d73c 1b54 f83d 8347 f73d 3dd4 a33d
00000040: 1660 a53d 52c6 7e3d c347 44bd f44a 88bd
00000050: 2614 bdbc 9bd8 88bd 65a6 903d 02d7 d63d
00000060: 854e 5e3d c7c8 9c3d 2eac 3d3d d0dc 02be
00000070: 3cf2 d1bc b028 b4bc a0a4 663d 9f7a f93c
00000080: 965e cd3a 6cb1 44bc 242e 303d 2c09 783d
00000090: bce2 1bbe 3604 1bbe a695 5a3d d166 10bd
000000a0: f52a a23d d75a ca3d 727c babc d16b 073d
000000b0: d869 2c3d f49f c0bd 37e1 1c3d 5a99 d53d
000000c0: ec92 58bd 44f1 d3bd 997a eebc bb01 be3b
000000d0: 6d53 da3d dbbd 92bc 306c 5cbd 7a2a 2a3d
000000e0: bbe7 e23d c4be 87bd 2abb 94bc 2947 4dbd
000000f0: 1410 bc3d e489 db3d c789 40bc f6ce 4cbd
00000100: aff4 06bd be53 483d a9c2 ecbc 412e 943c
00000110: d4ea a5bc 45a8 983d 89ab 00bd 3be7 363d
00000120: 50e2 3fbd 47de a23d 1926 ca3d 4fcd 2f3d
00000130: c34f ec3c 7526 343d 3a2d 55bc 28e4 c9bd
00000140: eaab 8e3d 34a3 af3d bab9 533d 27d2 05bd
00000150: fbf4 383c c6cb 5b3c e67c 9d3d 7ebf de3c
00000160: d03d 2cbd 695a 473d 8a21 8d3c f82c 24bd
00000170: 1187 2abd e99e c03d 8491 b83d f52e 493d
00000180: 32b5 b2bd 2d27 16be 6869 fd3c 7736 a9bc
00000190: 9b78 2bbd f40e 94bd 0bd1 843d ded4 dabc
000001a0: 586e 0fbd 5b98 8c3d e6c1 293c 50ec 803c
000001b0: ee42 423d ba50 e03d 7129 ef3d 973e 49bb
000001c0: e18d 553d 13d1 4cba 7aad 2b3d 3566 9abc
000001d0: 430b 593b 8828 573d 5678 b93c f2ba eb3c
000001e0: a0e5 373d 1b68 00bd bdc8 e93b 1a09 eebd
000001f0: 499e 1cbe 931c 74bc 7fb0 44bd ac3e bc3d
00000200: 9ede d93d d380 80bb ade6 61bd 5b0a c53c
00000210: 2524 103c ef87 9abd edf2 383e 903b 9abb
00000220: 176d 07bc 701e cc3c 7391 da3c fafa d5bc
00000230: 66dd b83d 95be b3bc 0357 a13d 5d8c 8abd
00000240: 906c 253c c150 7fbd 6c18 b9bd d0f4 633d
00000250: 3968 a23d fa56 ee3c fad8 303d 2bac fcbc
00000260: 8718 2ebd 77bf fabc 6db9 f6bc c5ee aa3d
00000270: cfa6 c6bc b847 d13d 3dc2 1f3e 296d ee3a
00000280: f142 473d a824 f7bc 33b4 063d 7b88 81bd
00000290: 349a c73d 31c3 3abd cdc8 053a 6d5f 4fbd
000002a0: f78b b83d 937b 52bd 5274 37bd bea9 87bd
000002b0: 95c1 373d 4d47 673d 564b 86bc f6c2 d33a
000002c0: e667 9a3d 7473 8cbd 189d 973d 0562 873c
000002d0: 6f9a 3ebd 219e 02bc 8c21 173d e01e 8a3c
000002e0: fb86 7abd ddcc d33c 2e12 63bd 1df3 b13c
000002f0: 5e70 983d 6a03 cfbc be6a 96b9 bf65 9ebd
00000300: f5c7 aabd 15d7 27be b516 6dbc 509a 0e3d
00000310: cba3 78bd 26a4 32bc df5d 6e3d 95df ad3c
00000320: cd2a 963d ea96 973c 6c57 dfbc e3ef cf3d
00000330: c81b ae3d 489f af3d a522 ca3d 5c96 b93d
00000340: 7a15 1fbd 714e 8dbd 25f6 aebd 3f9f c3bc
00000350: 5d89 9dbd 2a94 7f3c 365a 223d 89ce 7c3d
00000360: 21ec 8cbd 572f 40bd 725b d63b b66e 02be
00000370: efab 38be f80e 26bc bd6d 943d 969a a8bd
00000380: 0f75 c0bc 832a 75bc 3f26 26bd 5cb3 99bd
00000390: 08dc edbd b325 dfbd abd5 cc3d 388c 6e3d
000003a0: d67a 2abd 12fd 8ebb dd7b fcba f6e6 563d
000003b0: 66bd a5bd 84c0 4f3b c034 3cbd 8590 123d
000003c0: 9569 06bd 02cc c03c 070b 523c c8cb 0bbc
000003d0: 8565 af3d e0bf d2bd 8e98 84bd a568 0a3d
000003e0: ad2c 2b3d a9bc c1bd f1b4 b5bd 6d02 8a3d
000003f0: 8ae1 6e3d f1f9 79bd 99d3 263d 19c7 203b
0.06640369 -0.08427801 -0.03224812 0.059875455 -0.0697609 0.033869114 0.056079935 -0.051929247
0.06419952 0.09045212 -0.0063028755 -0.023267122 0.026315833 0.12125417 0.12074187 0.079994656
0.080749676 0.06220085 -0.04792 -0.06654921 -0.023080897 -0.06681939 0.07062987 0.10490228
0.0542741 0.07655483 0.04630678 -0.12779546 -0.025628202 -0.021992058 0.056309342 0.030453978
0.0015668448 -0.012005191 0.043012753 0.060555622 -0.15223211 -0.15138325 0.053365372 -0.035254303
0.0791835 0.098806076 -0.022764418 0.033061806 0.042093128 -0.09405509 0.03830072 0.1042964
-0.05287449 -0.10348752 -0.029111193 0.005798546 0.106604435 -0.017912796 -0.053814113 0.041544415
0.11079355 -0.066281825 -0.018155653 -0.05011669 0.09182754 0.1071966 -0.011751599 -0.05000206
-0.032948192 0.048907988 -0.028901415 0.018088462 -0.020253576 0.0745397 -0.03141359 0.044654112
-0.046846688 0.07952552 0.09870548 0.042920407 0.028846627 0.043981988 -0.013011271 -0.098579705
0.06966384 0.085760504 0.051690795 -0.03267112 0.011288877 0.013415283 0.07689838 0.02719092
-0.042051136 0.048670206 0.017227907 -0.040081948 -0.041632716 0.0940531 0.0901213 0.049117047
-0.087259665 -0.14663382 0.03093405 -0.020655854 -0.041863065 -0.072294146 0.06485184 -0.026712831
-0.03501734 0.06864997 0.01036117 0.015737683 0.04742711 0.10952897 0.11677826 -0.0030707472
0.05213726 -0.0007813137 0.041913487 -0.018847564 0.0033118285 0.052528888 0.022640388 0.028775666
0.04489672 -0.031349283 0.0071345256 -0.1162283 -0.15294756 -0.014899391 -0.048019882 0.09191641
0.10638164 -0.003921607 -0.05515163 0.02405279 0.00879768 -0.075454585 0.18061419 -0.0047068074
-0.008265755 0.024916857 0.026680684 -0.026120652 0.090266034 -0.021941463 0.07877924 -0.067650534
0.010096684 -0.062332872 -0.09037861 0.055653393 0.07930035 0.029094208 0.043175675 -0.030843815
-0.04250386 -0.030608876 -0.030117715 0.08346323 -0.024249462 0.102187574 0.1560144 0.0018190491
0.048647825 -0.030168846 0.032886695 -0.0632486 0.09746209 -0.045596305 0.0005103469 -0.050628114
0.09011071 -0.05138738 -0.044788666 -0.06624173 0.04486235 0.056464482 -0.016393345 0.0016156125
0.07539348 -0.068579584 0.0740301 0.016526232 -0.046533998 -0.007972271 0.036897227 0.016860425
-0.061163884 0.025854522 -0.05543726 0.02172237 0.07443307 -0.025270183 -0.0002868976 -0.0773425
-0.0833892 -0.16390641 -0.014470746 0.034815133 -0.06070308 -0.010903394 0.05819499 0.021224776
0.07332382 0.018504579 -0.027263366 0.10153177 0.085013926 0.08575302 0.09869889 0.09061882
-0.03883884 -0.06899727 -0.08543042 -0.023879645 -0.076922156 0.01559929 0.039636813 0.061720405
-0.068809755 -0.046920147 0.006541663 -0.12737545 -0.18034337 -0.010135405 0.072474934 -0.0823261
-0.023493318 -0.014963749 -0.040563818 -0.07504913 -0.11614233 -0.108958624 0.100016914 0.05823919
-0.04162105 -0.0043636644 -0.0019262988 0.052466355 -0.080927655 0.0031700442 -0.045948744 0.035782356
-0.032815535 0.023534779 0.012820012 -0.008532472 0.08564285 -0.102905035 -0.0647441 0.033791203
0.041790653 -0.09459812 -0.088724025 0.06738744 0.05832056 -0.06102938 0.04072914 0.0024532734

conv_block2.c.bias f4 [32]
00000000: f7a2 c7b7 f62b 2637 0c17 4db6 4b18 51b7
00000010: 2345 3a36 2fb4 66b7 5b7f 8d36 6b51 edb6
00000020: 1944 f1b6 f80a 97b5 3dd1 c536 6b05 ca37
00000030: bb8b 2ab7 5119 4ab6 5547 05b8 d189 bbb6
00000040: e78d 04b6 7be2 83b8 06d2 3237 be93 8737
00000050: 7af6 44b6 baed d9b5 3b11 24b8 fad5 7db7
00000060: 862a 7e36 9939 87b6 7622 fd36 92b1 ec36
00000070: 79ec 80b7 1218 8636 da1e 24b8 aec4 b4b6
-2.3798535e-05 9.9046065e-06 -3.0560795e-06 -1.2463027e-05 2.7756403e-06 -1.3751021e-05 4.2169536e-06 -7.0726287e-06
-7.1902873e-06 -1.1253569e-06 5.895416e-06 2.40828e-05 -1.0165323e-05 -3.0115082e-06 -3.1776104e-05 -5.5890782e-06
-1.975213e-06 -6.288752e-05 1.0658527e-05 1.6162052e-05 -2.9349744e-06 -1.6236947e-06 -3.9116694e-05 -1.5129795e-05
3.7873701e-06 -4.0300188e-06 7.5439993e-06 7.05402e-06 -1.5368905e-05 3.9963134e-06 -3.912938e-05 -5.3873146e-06

conv_block2.bn.weight f4 [32]
00000000: 552b 633f e62c 653f 019a 7b3f 886b 723f
00000010: ae47 4d3f ba7f 673f 4fb4 563f dcde 593f
00000020: 7d01 403f aafb 4e3f f345 823f e4d2 773f
00000030: 5f05 853f dc9f 633f 1a63 6c3f 840f 423f
00000040: c2d4 7b3f 0f26 8d3f cb24 6a3f 4535 583f
00000050: 8ccd 5c3f a047 543f 7a41 863f 4d24 6a3f
00000060: c3db 533f 8e51 4e3f 07dd 793f a34e 6b3f
00000070: 2c72 533f 9bf4 633f 2f7c 8a3f 1a9f 593f
0.88737994 0.89521635 0.98281866 0.9469533 0.801875 0.9042927 0.8386888 0.8510568
0.7500227 0.8085276 1.0177597 0.9680617 1.0392264 0.889158 0.92338717 0.75804925
0.9837152 1.102724 0.9146239 0.8445628 0.8625114 0.8292179 1.0488732 0.9146164
0.82757205 0.8059319 0.97602886 0.91916865 0.8259609 0.89045113 1.0819148 0.85008395

conv_block2.bn.bias f4 [32]
00000000: a04e efbe cb88 3abe e81e 28be 894f 69bd
00000010: b829 1dbe 49da c6bd e364 56be 68fa 79bd
00000020: 1208 71be f3d9 7cbe 54ad 0ebe cec7 5cbe
00000030: 9abf 12be 4927 49be 0bcb 49bd f0bc 5bbe
00000040: 098b b2be bad3 40be 181d e4bd 42dc b03d
00000050: 64b7 e9bd 14b3 a3bd bca1 97bd ecc0 d8be
00000060: 81af 49be 00ea bfbe b117 1ebe 5381 bebd
00000070: ec99 c2be f50a 1dbe 44cf d03c 2820 23be
-0.46739674 -0.18216245 -0.1641804 -0.056960616 -0.15347946 -0.09709603 -0.20936923 -0.06102982
-0.23538235 -0.24692516 -0.13933307 -0.21560594 -0.14330903 -0.19643892 -0.049265902 -0.21458793
-0.348717 -0.18830767 -0.11138362 0.08635761 -0.11411932 -0.07993141 -0.07403895 -0.42334688
-0.19695856 -0.37483215 -0.15438725 -0.093020104 -0.38008058 -0.15336211 0.025489457 -0.15930235

conv_block2.bn.running_mean f4 [32]
00000000: 2e2f fa3e c27b 0d3e 548f 44be 719a 00bf
00000010: 4bea d5bc dc8a 9f3e 7cc2 9a3e 6500 7fbe
00000020: e3f3 8abd fc34 58be 500a 11be ea25 15be
00000030: 794c 29be 6a5b 1ebe 418b 28bd 81c4 e13e
00000040: d046 993e 494b 31be db4d bcbe 47a0 713e
00000050: 9278 24bf 7b4b 1fbe fbe9 2bbe 0f6a c73e
00000060: 46e2 e13e de68 11be fd13 1cbe c0c6 d2be
00000070: 41fe 213f 7841 19be 11f3 0abe 2c7d 92be
0.4886412 0.13816741 -0.191953 -0.5023566 -0.026112696 0.3116063 0.30226505 -0.24902494
-0.06784799 -0.21113962 -0.1416409 -0.14565244 -0.16533078 -0.15464559 -0.041148428 0.44095233
0.29936838 -0.17313875 -0.3677815 0.23596297 -0.64246476 -0.15556137 -0.16788475 0.38948104
0.44117945 -0.1420016 -0.15242 -0.4116726 0.63278586 -0.1496638 -0.13569285 -0.28611124

conv_block2.bn.running_var f4 [32]
00000000: 5e02 b13e 6b5b 293e 1e8d fa3e 4899 0d3f
00000010: 5ed1 1a3f f35e be3e 017d 593e aea2 bd3e
00000020: eff3 f73d 8a9a 133e 3521 853e 8568 6c3e
00000030: db9a 923e 8c2a 1f3f 9f1a 143e 3416 063f
00000040: 5d62 e23e 7d46 183e 7e79 7e3e 625e 113f
00000050: 158e 3d3f 139b 4e3e 3aea 4e3e d4e8 7b3e
00000060: f7a0 213f 4ede ec3d 7df1 583e 4b0c de3e
00000070: cedc ba3e 8a16 a83e d63d 4d3e 21dd 7d3e
0.3457212 0.1653878 0.4893579 0.55312014 0.6047572 0.37181816 0.21239091 0.37038177
0.121070735 0.1441442 0.26001897 0.23086746 0.2863377 0.62174296 0.1446328 0.5237763
0.4421567 0.14870639 0.24851033 0.5678464 0.74044925 0.20176344 0.20206538 0.24600536
0.6313624 0.11565839 0.2118587 0.43368754 0.36496586 0.32829696 0.2004312 0.24791385

conv_block3.c.weight f4 [32, 32, 3]
00000000: fff4 0f3e 0083 013c 51ad 25be f0f4 9ebb
00000010: e1d7 3f3d a6a1 08be 35eb 473d 73c1 db3a
00000020: e228 83bd faa6 13bd 5f54 de3d dc9b 893d
00000030: 38c7 c13d 49e9 f3bc d906 07bd 63eb 9b3d
00000040: 330f e23c 8228 183d 0f8a cc3c b0b5 8abd
00000050: 1a69 9bbd f368 c13d a750 343a 7017 1a3c
00000060: 92f4 2a3e b80a 1bbd 11c5 d13c 09ff 4e3d
00000070: a1e3 e73d f981 b0bc ce4b b63d 230e edbd
00000080: ebe3 27be 9a7c 0abd 0c76 acbd 30e9 8abd
00000090: 3424 de3c 64bf 72bc b518 88bc d770 3b3c
000000a0: 4a3d d9bd 2a8d 5a3d 3200 bfbd e892 e83d
000000b0: 9d44 85bc ebc8 45bd 83bf 913d ed4d a13c
000000c0: 44d8 293e ddf7 21bc 7e0b 0dbe c5ee c73d
000000d0: f83f e7bc 36f0 8a3d 7be3 783e c838 423e
000000e0: b9f5 633d 7ee5 2c3d 1fbe b73d 1ac9 313d
000000f0: 19fe 103e 13f6 6dbd 9764 22bc 481f 9b3c
00000100: f8f7 0e3d 130c 27bb 629a a3bd 374f 1b3d
00000110: c7cd 183d 9857 833d 9630 463d 2a0f 733c
00000120: dc11 f0bc 9927 633d ee25 0fbd cbcb 3abd
00000130: d41a 8e3c 1211 8fbd 090c 733d 9a94 333d
00000140: 997d d6bb 1aa6 bd3c 6952 a53c 9fd8 cdba
00000150: 0128 353c 1bcc 813d 290d 9d3c f588 0c3d
00000160: dcac 4fbd 3781 b63c 56e6 0bbd d5b4 84bd
00000170: 0092 153d e026 a33c be3f f73d 3007 243d
00000180: 47ae 8abc 639b 97bc c0de af3d 3032 6b3d
00000190: 763f 6f3d f374 1bbd c3cb 903d 8973 f5bd
000001a0: 7ada bf3d 2465 00ba 8304 473d 1637 813d
000001b0: b795 a3bc 7830 bcbb 65b4 d8bb 3b5e acbc
000001c0: cc4f b6bd 3e88 d6bb eee8 753d b967 b1bc
000001d0: d7f3 9f3b 648a 103c 44b5 6d3d e017 a13b
000001e0: 2f0d 513d b907 96bc d372 953b 0cb8 9a3d
000001f0: ec41 2fbc d946 24bd 1742 363d 1195 17be
00000200: 1c45 b0bd a142 4bbd 34ec 7a3c 30f8 123e
00000210: 146a d03d 81cd 15be 63f4 343d fb21 fb3a
00000220: 88cc 0a3e 5eaf 3d3e 9c00 10bd ad11 1c3c
00000230: 409c 5eb9 bc54 9dbc 6878 3b3d 998f baba
00000240: fc9f 4b3d f5fe c9bb 40ae a83d 546f 06bd
00000250: 8ed0 003e 7efa 00be ad86 87bc 9ea3 85bb
00000260: 2935 e3bd 8875 cabd 41d0 d53d 7a63 c7bc
00000270: 6099 c8bd 7989 913d 45fd 9f3d ab92 fe3d
00000280: 5a65 40bd 5bde 563d 5800 25bd ef84 de3c
00000290: 21b7 dd3c 5f14 30bd f53f 9d3d 0fa2 293d
000002a0: 96a0 28bd 2aca 213d 61b4 2a3d f1fe b73c
000002b0: c6db 1d3d e69e bfbd 7546 87bd 3a7b 9d3d
000002c0: 3d61 febd 01ea 41bd 721e be3c 323a 223d
000002d0: 8c70 ca3d 2816 a3bd 1125 0abd 7bb4 f03d
000002e0: df04 eabd 2ded 083c 628b 9bbd 5dd5 963d
000002f0: 25b2 a73c 212f 77bd f31c 9b3c f0dc 773b
00000300: 4f67 82bc 70a8 4fbd 43db 813d f7a3 133d
00000310: cae1 1f3d 9cd5 763d 6463 0dbc 847b 873c
00000320: 53ab 4d3d 3c3a 8fbd 6867 b43c 9e76 8fbd
00000330: 9266 963d 15f6 0abe 9b21 48bd 011b 31bd
00000340: c5a0 073c 84e9 c53d d22c 40bd e52d 99bd
00000350: 2b3d 07bc e7bb ffbc 103c 89bb 70a1 16be
00000360: f77d 04bc 08dc 023d f3b6 023d c6b5 793c
00000370: 54e9 d6bb 1e58 bc3d 9f8d f0bd e84e b1bc
00000380: dfaf 7a3c 54c6 37bd 5615 d33c f16f 8dbb
00000390: e598 ea3c 2906 15be 2807 3b3d 1e16 393c
000003a0: 77e2 243c 12c7 83bd 50f7 82bd bb13 2a3d
000003b0: c3be 0f3c bbc6 153d ce25 bfbd d33b c6bb
000003c0: efbf d3bd e7c1 26be c84c 8f3b ba5f 013c
000003d0: dc78 5f3d ee89 60bd 646c 73bd 6d6a 503d
000003e0: b8a9 723d 8dd9 603c 5445 94b8 144c acbc
000003f0: 6fdd 8f3d 90cb a8bb 4b97 d9bd 34c3 1b3d
0.14058302 0.007904768 -0.16179396 -0.004850976 0.046836738 -0.13342914 0.048808295 0.0016766026
-0.06404282 -0.036047913 0.10855936 0.06719181 0.09461826 -0.029774325 -0.032965515 0.07613256
0.027595138 0.037148006 0.024968175 -0.067729354 -0.07588406 0.094438456 0.0006878473 0.009405002
0.16694859 -0.03785202 0.025606664 0.05053619 0.11322714 -0.02154635 0.08901177 -0.11574962
-0.16395538 -0.033810236 -0.08420953 -0.06782758 0.027116872 -0.014816139 -0.016613344 0.011440477
-0.10607393 0.05335728 -0.09326209 0.11356145 -0.016268069 -0.048287313 0.07116606 0.019690478
0.16586405 -0.009885755 -0.13773915 0.097623385 -0.028228745 0.06784098 0.24305527 0.18966973
0.05565426 0.04221105 0.089718096 0.043404676 0.1415943 -0.058096003 -0.009911678 0.018935814
0.03490445 -0.0025489375 -0.079884306 0.037917342 0.03730562 0.064131916 0.04838618 0.014835158
-0.029305391 0.055457685 -0.034948282 -0.04560451 0.017346777 -0.06985678 0.05933765 0.04384289
-0.006545734 0.023150492 0.020180898 -0.0015704817 0.011056901 0.06337758 0.019171314 0.0343103
-0.05070196 0.022278411 -0.034155212 -0.064798035 0.03651619 0.019915998 0.12072705 0.040045917
-0.016928805 -0.018506711 0.08587408 0.05742091 0.05841013 -0.03795333 0.070701145 -0.11984927
0.09367843 -0.00048978836 0.048588287 0.06309335 -0.01996885 -0.0057430826 -0.0066133016 -0.021041026
-0.08901939 -0.006547003 0.060036592 -0.021655904 0.004881363 0.008822057 0.058034196 0.004916176
0.051037963 -0.01831423 0.0045608073 0.075546354 -0.010696869 -0.040106628 0.044496622 -0.14802958
-0.086069316 -0.04962409 0.015315104 0.14352489 0.10176483 -0.14629175 0.044178378 0.0019159907
0.13554585 0.18523929 -0.03515683 0.009525699 -0.00021229777 -0.019205444 0.045769125 -0.0014233469
0.04971312 -0.0061644264 0.082363605 -0.032821015 0.12579557 -0.12595555 -0.01654371 -0.0040783426
-0.11094124 -0.098856986 0.10440112 -0.024339426 -0.09794879 0.07106299 0.07811979 0.124303184
-0.046971656 0.05245815 -0.04028353 0.027162997 0.027064862 -0.042988177 0.076782145 0.041414317
-0.04116877 0.03949944 0.04167593 0.022460433 0.03853967 -0.09356479 -0.066052355 0.07689519
-0.124208905 -0.047342304 0.023207877 0.03960628 0.09884748 -0.0796321 -0.033726756 0.11753174
-0.1142671 0.008357328 -0.075949445 0.073649146 0.020470688 -0.06034768 0.018934703 0.0037820898
-0.015918402 -0.050697744 0.06340649 0.03604504 0.03903369 0.060262308 -0.008629654 0.016538389
0.050212216 -0.06993529 0.022021964 -0.07005046 0.073437825 -0.13570435 -0.048860174 -0.043238644
0.008278077 0.0966368 -0.046917744 -0.07479457 -0.00825433 -0.031217529 -0.004188068 -0.14710021
-0.008086673 0.03194812 0.031912755 0.015241092 -0.0065585766 0.091964945 -0.11745762 -0.02164407
0.01530072 -0.044866875 0.02576701 -0.004316323 0.028637359 -0.14553131 0.04566112 0.011296777
0.010063759 -0.06434454 -0.06394827 0.041522723 0.0087735085 0.036566477 -0.093333825 -0.006049612
-0.10339343 -0.16284905 0.0043731667 0.007896358 0.05455862 -0.05481904 -0.05942954 0.050882746
0.059243888 0.013723743 -7.070103e-05 -0.02103237 0.07024657 -0.0051512197 -0.1062456 0.038027957

conv_block3.c.bias f4 [32]
00000000: aaea ecb6 2330 9935 568b 8037 3048 edb6
00000010: 63a6 8437 b0bc 6eb7 309d e0b6 7c0e ca35
00000020: 3a8f c436 fb89 5fb6 e3c4 bbb5 c5b5 e5b5
00000030: ac1d e5b5 9d37 a036 4d76 0eb6 54ee 0e38
00000040: 718e 2f36 2092 2b35 f06c 18b7 aebe 0836
00000050: 9530 88b6 31ba 6536 7dd3 92b4 6b90 5eb6
00000060: 6f2e d736 3d77 50b6 0766 1ab7 5a60 0b37
00000070: e033 efb1 3e1e 0b33 bb76 3635 6764 c1b7
-7.0606666e-06 1.1413398e-06 1.5323672e-05 -7.071554e-06 1.5813106e-05 -1.4229838e-05 -6.6940192e-06 1.5054388e-06
5.857929e-06 -3.3309905e-06 -1.3989887e-06 -1.7114731e-06 -1.7070465e-06 4.774846e-06 -2.122851e-06 3.40774e-05
2.6159944e-06 6.3915104e-07 -9.08527e-06 2.037657e-06 -4.0587715e-06 3.4232037e-06 -2.7348497e-07 -3.316464e-06
6.412905e-06 -3.106382e-06 -9.20287e-06 8.307479e-06 -6.961713e-09 3.2390965e-08 6.797306e-07 -2.3054146e-05

conv_block3.bn.weight f4 [32]
00000000: 0c59 563f 8750 3d3f fb6b 373f ff92 4c3f
00000010: 05c5 6c3f 31bc 643f 86d8 703f 48ef 553f
00000020: 8adf 873f 4a48 823f e2e6 6a3f 99e6 443f
00000030: 210e 373f c6a7 5a3f b508 473f 9564 8e3f
00000040: 7277 613f 0cdd 353f d5c5 2e3f 5538 593f
00000050: 4af1 6d3f 24cc 503f 522c 483f 204d 593f
00000060: bf92 473f fe62 6d3f 2734 393f f155 703f
00000070: ca07 513f 986c 423f e858 803f aa31 863f
0.83729625 0.73951 0.7164914 0.799118 0.9248813 0.8934966 0.9408039 0.8356824
1.0615094 1.0178311 0.9175855 0.76914364 0.71505934 0.8541225 0.7774766 1.1124445
0.88072884 0.71040416 0.6827062 0.8485158 0.929463 0.81561494 0.7819263 0.8488331
0.7795829 0.92729175 0.72345203 0.93881136 0.8165251 0.7594695 1.0027132 1.0483906

conv_block3.bn.bias f4 [32]
00000000: d580 33be bd52 2dbe 35a3 4abe 695a 2dbe
00000010: 5711 7ebd fe03 f9bd 0c6b bbbd 899e 52be
00000020: 0398 41be 709d 50bd 3a5c 25bd e783 77be
00000030: 84c3 50be 4eeb 40bd 7a89 88be 61de 86bd
00000040: 4552 ffbd 6dff 7abe 4aca 6cbe 6d76 69bd
00000050: d1a3 3abe 524b efbd 791b 9abc 6fc6 88be
00000060: f6e4 c4bd a9a4 73bd c2e1 71be 6465 52be
00000070: 8284 5dbe f29f a6be 6d59 933b 95ef 4bbd
-0.17529614 -0.16926093 -0.19788821 -0.1692902 -0.062028255 -0.121589646 -0.09151277 -0.20568289
-0.18905644 -0.050931394 -0.040371157 -0.2417141 -0.20387083 -0.047099404 -0.26667386 -0.06585384
-0.124668635 -0.245115 -0.23124042 -0.056997705 -0.18226553 -0.11684288 -0.018811928 -0.26713893
-0.09613983 -0.059483204 -0.23621276 -0.2054649 -0.21632579 -0.32543904 0.0044967444 -0.04978903

conv_block3.bn.running_mean f4 [32]
00000000: 977c ca3e c921 263e 82e5 e6be 4b1b 35be
00000010: 6892 ffbb becc 4bbe bd48 91be 574d e9be
00000020: 6f92 aabe bf8b 30be 0aca 89be cd5b 56be
00000030: 89b6 cf3e 4329 05be 8396 6cbd a19c 88be
00000040: 0731 263c 98bb 313e 0e0b 0f3c 6a3f ddbb
00000050: d211 88be f3a3 e5be da59 563d 5785 55be
00000060: eebf e3bd d9ac a4bc 69f6 f7bd ba0f c6be
00000070: 6d78 72be 00b9 943e 1054 4ebe 0376 2dbe
0.3954818 0.16223826 -0.45096976 -0.17686193 -0.0077994354 -0.19902322 -0.28375807 -0.45566818
-0.33314845 -0.17240809 -0.26911956 -0.20933457 0.4056895 -0.13004021 -0.057760727 -0.26681998
0.010143525 0.17356718 0.008730663 -0.0067519443 -0.26576096 -0.44851646 0.052331783 -0.20851646
-0.11120592 -0.020101951 -0.12107546 -0.38683873 -0.23678751 0.29047394 -0.20149255 -0.16939549

conv_block3.bn.running_var f4 [32]
00000000: c60e 913e 4f88 133e 0433 613e 0180 e03e
00000010: f657 463f 241a f03e 3bff 0d3f bf65 fb3e
00000020: 6363 103f b6fe 1b3f d56a 4b3f 0d73 0c3f
00000030: e542 c03e 5ea8 b93e 60a4 de3e db1f 9e3e
00000040: 0990 323f 0e13 033f b5d4 013e e45d 953e
00000050: 6075 043f 1cc6 0c3f a154 163f 2a52 c83e
00000060: b49c 623e ef25 7d3e 0593 873e 53d6 283f
00000070: 726c 5e3e 9f0c fb3e 0b18 203f 79f7 033f
0.28331584 0.14407466 0.21992117 0.4384766 0.7747797 0.46894944 0.55467576 0.49101064
0.5640165 0.60935533 0.7945989 0.54863054 0.37551036 0.36261266 0.43484783 0.3088368
0.6975103 0.5120095 0.12678798 0.29173195 0.517416 0.5498979 0.58722883 0.39125186
0.2213009 0.24721502 0.26479355 0.6595203 0.21721056 0.49033067 0.62536687 0.5154949

conv_block4.c.weight f4 [32, 32, 3]
00000000: cc10 2ebd 198b 213d 7a28 873d d513 a23c
00000010: 37ea b1bd b8eb 9a3d 390e 7ebc ea48 c53d
00000020: b18a 923d 9a34 04ba 69e5 163d b4dd 6fbd
00000030: 77eb 253a 38cf 713d 096f 01be 46e9 043d
00000040: 555e 87bd 80c6 403c 91e1 9c3d 78ac 3e3d
00000050: 1ace b63d db83 cbbd e681 45bb 06bf 2e3d
00000060: 9497 f9bd 2af4 d93c 9a72 e63d b625 2a3d
00000070: 3b6b 14bd da89 84bd b8b7 973c b339 1cbd
00000080: 8abd 08be c456 e5bd 26fc 123d bafe 113d
00000090: 88a1 1cbd a621 8b3d 0634 923d af6e a63c
000000a0: 6ec1 ac3c d1ec aa3c 6524 72bd 9c49 10bd
000000b0: 8549 be3c fba2 393d 888c d0bd cfe6 c83d
000000c0: f121 3ebd 937b 813d b2ac 9b3d a9ae af3d
000000d0: a536 51bd 7004 14bd 112e a23b 4eb1 d0bc
000000e0: 3c65 a13d d612 153d 91e7 e73c 3c28 2a3d
000000f0: 3573 babd 43cd 4ebd 65cb 72bd 772a ecbd
00000100: efa9 efbc ccb6 943d 6498 bebd 677c 86bc
00000110: aeda 76bc 768c 08bc c1b7 2c3c aeb6 a23d
00000120: c1ca 2dbd b22d 843d 4260 643d 91c4 b6bc
00000130: ea0d 863c 6590 a13d bc93 c03b 08cf 2a3e
00000140: 9b89 e53d 2200 7bbd 60a2 1c3e c219 98bd
00000150: ea91 913d 793a 203d 587b b63d c1d1 8abd
00000160: 00db d03d ba83 8dbd 4404 21be 34af 773c
00000170: be38 ac3d 4611 fabc 66e9 9c3d 2e94 b9bd
00000180: 700b 073d d029 243d 9bec c03d 7990 613d
00000190: de23 063d 08c2 38bd e028 933b 745b 37bd
000001a0: 3c41 dfb9 f1e3 f13d 1bd6 91b8 38fa 88bd
000001b0: b93c 6d3d 14c6 163d e9a2 1f3d 8eff 0fbe
000001c0: 2263 193d 93bd 503d 122a c9bd 62fe 823d
000001d0: fed3 5d3c b6d6 fc3c 3f8e b93d 6d72 7e3d
000001e0: 9a00 833d e5ae c63d e813 0b3d c5e2 32bb
000001f0: 503d f23d 3188 c9bc 5783 1f3d 1b73 203c
00000200: bfe5 c23d 2489 873d a5ce 4fbc 0e75 aa3d
00000210: d86b 623d 9e66 ae3d b8df 263e 635b c7bc
00000220: e045 a6bd 01a0 be3d a2fa cbbd 339d 623d
00000230: 42e9 bb3d b256 1abe 29ef 92bd 7412 273e
00000240: af5e ab3d 14ac 133d 45e6 e53d fde6 53bd
00000250: d759 31bd 25b8 bd3c b677 ba3c 5e6c 683a
00000260: 6f1b 4f3d 2f88 a73d b849 843d 49b4 b2bd
00000270: e70c 413d 22c1 303c 3eff 17bd d4fa 42bc
00000280: 643d 8e3d 2e14 413d fed8 22bc c875 99bc
00000290: 7457 a6bc 9e08 41be 2abc f93c 31e0 6d3d
000002a0: 3265 20be 2500 a2bb fa4c e43c b64e d3bd
000002b0: 29d1 943d ad5a ec3d be4b f2bc d836 0abb
000002c0: 7ffc f03d 8b47 e23c 7f59 183d ae2d 553d
000002d0: 0963 0b3d fa58 5c3d e752 b23d 63a2 fc3c
000002e0: c9a5 bf3c 1921 8e3c 61cf 1fbd 7086 1d3d
000002f0: 4a48 1c3c aacc 8f3d 6d2e c93c 96c8 323d
00000300: 863b c7bc ddfa 213e c23a 1d3c a95b 00bd
00000310: f43e 35bd dd84 493d ee9b 3d3d c2ba 1e3d
00000320: 4523 023e dd72 df3d 5c3f 9cbd c04f 1cbd
00000330: 7974 f73b c1ff 663d ec67 afbd 1048 fdbc
00000340: db7a 5b3d 70e7 4b3e 2ddb aabc 8ac7 cb3d
00000350: d084 093d b15c f23d c4d4 443d 294b c9bd
00000360: ab58 f33d aed0 043d df7d 4bbd 3482 0ebd
00000370: 6edb 2c3c 507e b7bd 8dc3 bdbd 4bec 5dbd
00000380: 06fa 9f3d b517 8bbb 7257 1c3d a95e 363d
00000390: 2c89 b93d ce09 283d f0f5 2bba 7452 14be
000003a0: 0e70 0e3d 1255 313e bd06 8c3d a703 413d
000003b0: f82b 20bd a549 eebc 8a51 e33b a473 2c3d
000003c0: ed65 0e3e a585 a63c 60e8 96bd 490c 3c3d
000003d0: b512 923d 188c ab3d 1551 d43b c0ca ce3d
000003e0: e875 053d c508 253d d5db 26bd b1fc 88bd
000003f0: 0fe7 713d 4567 4cbd 152c afbd d81e 063d
-0.042496487 0.039439294 0.06599517 0.019784847 -0.08687251 0.07564491 -0.015506321 0.09633048
0.071553595 -0.00050432386 0.036839876 -0.058561042 0.00063293375 0.05903551 -0.12640013 0.03244903
-0.06609789 0.011766076 0.07660211 0.046551198 0.089260295 -0.09937259 -0.003013724 0.042662643
-0.12187114 0.026605684 0.11252327 0.04153987 -0.036235075 -0.064716056 0.018520221 -0.038140964
-0.13353553 -0.1119819 0.035885 0.035643317 -0.038239986 0.06793527 0.07138829 0.02031645
0.021088328 0.020864876 -0.05911674 -0.03522645 0.023228416 0.045321446 -0.10183054 0.09809648
-0.046419088 0.06322398 0.076012984 0.08578236 -0.051077504 -0.036137044 0.004949339 -0.02547517
0.07880637 0.036394916 0.028308662 0.041542277 -0.09104005 -0.05048872 -0.059276003 -0.11531537
-0.029255835 0.07261428 -0.0930641 -0.016416742 -0.015066786 -0.00833427 0.010541857 0.07945
-0.04242969 0.06454028 0.05575586 -0.022310527 0.016364057 0.07888869 0.0058769863 0.16680539
0.11207887 -0.061279424 0.15296316 -0.07426788 0.07107909 0.039118264 0.08910245 -0.06778289
0.10198021 -0.069098905 -0.15724283 0.015117455 0.0840926 -0.030525815 0.07661705 -0.09061466
0.032969892 0.040078938 0.09420129 0.05506942 0.03274905 -0.045106918 0.0044909567 -0.04476495
-0.00042582478 0.118110545 -6.954019e-05 -0.066883504 0.057919238 0.036809996 0.038973723 -0.1406233
0.037448056 0.050962042 -0.098224774 0.06396176 0.013539312 0.0308641 0.090603344 0.062120844
0.06396599 0.09701327 0.03395453 -0.002729581 0.11828101 -0.024601074 0.038943615 0.009793068
0.09516477 0.066179544 -0.012683545 0.08323108 0.05527863 0.085156664 0.1629628 -0.024335569
-0.08118796 0.09307862 -0.09959914 0.055325698 0.0917535 -0.15072134 -0.071745224 0.16315633
0.08367669 0.03605278 0.11225561 -0.05173396 -0.04329857 0.023159096 0.02276216 0.00088662456
0.050563272 0.08180272 0.06459373 -0.08725793 0.047131445 0.010788234 -0.037108652 -0.011900622
0.06945303 0.047138385 -0.00993943 -0.01873292 -0.020305373 -0.18850943 0.030485231 0.058075134
-0.15663603 -0.004943865 0.027868737 -0.10317747 0.07266457 0.115407325 -0.029577132 -0.0021089818
0.1176691 0.027622005 0.037194725 0.052045517 0.034029994 0.053795792 0.087072186 0.03083915
0.023394482 0.017349767 -0.03901613 0.038458288 0.009538719 0.070214584 0.02455827 0.043648325
-0.024320375 0.15818353 0.0095965285 -0.031337414 -0.04424949 0.049198974 0.046291284 0.038752325
0.12708767 0.1091058 -0.07629272 -0.038161993 0.0075517264 0.05639625 -0.085647434 -0.030918151
0.05358396 0.19912505 -0.020856464 0.099501684 0.033573925 0.11834086 0.04805447 -0.09828789
0.118821464 0.032425575 -0.049680587 -0.03479214 0.010550363 -0.08959639 -0.09265814 -0.054180425
0.0781136 -0.0042447695 0.03816933 0.04452387 0.090593666 0.041024975 -0.000655978 -0.14484578
0.034774832 0.17317608 0.06837223 0.047122624 -0.039104432 -0.02908785 0.0069372104 0.04210247
0.13906069 0.020327399 -0.07368541 0.045910154 0.07132474 0.0837633 0.0064793923 0.10097265
0.032583147 0.040291566 -0.040736992 -0.06688822 0.059058245 -0.049903173 -0.0855333 0.03274426

conv_block4.c.bias f4 [32]
00000000: 21f6 ff36 c787 26b6 da8a 9cb6 2a1d 8f33
00000010: 507f 89b7 a596 8236 3ed7 d935 242d f335
00000020: 2de5 cbb5 b800 77b6 0ff5 a336 f655 e5b6
00000030: e924 9636 9406 1ab6 30ca 2035 be1b 2db7
00000040: 4c4d 67b5 3062 5635 af01 cdb5 ac9a f1b6
00000050: f3d5 4e36 f13c 6b35 a76c ac36 dd5b 9d35
00000060: ecc1 d736 aa1f a235 daa5 62b6 39a2 1636
00000070: 246b 94b6 b208 0db7 7589 a8b5 d7d7 1236
7.6282454e-06 -2.481496e-06 -4.6653267e-06 6.664261e-08 -1.6390957e-05 3.8918392e-06 1.6230404e-06 1.8118049e-06
-1.5191378e-06 -3.6806287e-06 4.886307e-06 -6.834739e-06 4.4746453e-06 -2.2951617e-06 5.9898866e-07 -1.0318063e-05
-8.616669e-07 7.9864094e-07 -1.527418e-06 -7.200366e-06 3.0820927e-06 8.7633003e-07 5.1386482e-06 1.1724147e-06
6.430075e-06 1.2079156e-06 -3.3773163e-06 2.2446168e-06 -4.4232165e-06 -8.406279e-06 -1.2556981e-06 2.188133e-06

conv_block4.bn.weight f4 [32]
00000000: c95c 313f a508 2c3f 2248 363f f39a 243f
00000010: 0d31 5f3f a0b3 7c3f 589b 6a3f 40b1 553f
00000020: 4cf5 253f 8c0a 2e3f 7f90 4c3f d0e8 403f
00000030: e03f 5d3f 1220 403f f008 3e3f 51fb 773f
00000040: fbba 413f e999 333f 7d5e 5a3f a905 4f3f
00000050: b8ee 403f 0522 4c3f e1ae 373f 7db5 483f
00000060: 9d30 453f 8dac 423f 6db0 483f c5b7 5d3f
00000070: f090 3d3f e7af 523f 22c9 343f 37fd 5d3f
0.69282204 0.6720069 0.71203816 0.64298934 0.8718422 0.98711586 0.91643286 0.8347359
0.6482742 0.67984843 0.79907984 0.75355244 0.8642559 0.75048935 0.7423239 0.96867853
0.75675935 0.70156723 0.8530043 0.8086801 0.75364256 0.7973941 0.7175122 0.7840193
0.77027303 0.7604454 0.78394204 0.86608535 0.7404928 0.82299656 0.70619404 0.867145

conv_block4.bn.bias f4 [32]
00000000: 8acb 80be 0921 a8be 8863 efbd ff79 013e
00000010: e022 9fbe d14c 06bd 928c 61bc 79c3 2fbe
00000020: 8501 18be fafb c0bc 9441 02be 90a7 92bd
00000030: 1f75 c2bd c1ad 04be e49e b8bd aec0 a0bd
00000040: eec0 a7bd e916 18be b3e6 9abd 2e33 12be
00000050: 2498 33be 9d95 8ebd bf0e 5bbe 9ce9 c2bd
00000060: 4294 33be 524e c7bd cd51 86be 1b74 8cbe
00000070: c74b 93bd 10a2 89bd f5df 1dbd cf2c 63bc
-0.25155288 -0.32837704 -0.11688906 0.12644194 -0.31081295 -0.0327881 -0.013766425 -0.1716441
-0.1484433 -0.023557652 -0.12720329 -0.07160866 -0.09494995 -0.12956907 -0.09014681 -0.07849251
-0.08191095 -0.1485249 -0.07563534 -0.14277336 -0.17538506 -0.0696213 -0.21392344 -0.09517214
-0.17537025 -0.09731735 -0.26234284 -0.2743233 -0.07192188 -0.06720364 -0.03854366 -0.013865664

conv_block4.bn.running_mean f4 [32]
00000000: 8868 fb3d 984d 133f 2913 a43e a2b9 6d3e
00000010: 354d 19bf 3a4e 4abf ac81 b3bc ac1f 39bf
00000020: bb16 64be 4fda 06bf 21f4 25be 452f 86be
00000030: d762 15bf fdb0 b1bc bc6e 31be 2a19 96be
00000040: 5688 9abe 8f65 2cbe 55c7 1bbf f072 a7be
00000050: 1eed 3b3f 5ae3 c83b afcb b3be 40e1 1dbf
00000060: fae9 e63e b004 4b3e 9421 32bf 5fad ffbe
00000070: 5b85 ecbe 34e8 d5be 6608 f73d ed9e 1cbf
0.12275797 0.57540274 0.32045868 0.23215345 -0.59883434 -0.79025614 -0.021912418 -0.7231395
-0.22274296 -0.5267686 -0.16206409 -0.2620794 -0.5835394 -0.02169084 -0.17327398 -0.29316074
-0.3018214 -0.16835617 -0.6085103 -0.32704878 0.7340869 0.006130618 -0.35116336 -0.6167183
0.45100385 0.19826007 -0.69582486 -0.4993696 -0.46195492 -0.4177872 0.12062149 -0.6118

conv_block4.bn.running_var f4 [32]
00000000: ca27 df3e 8434 7e3f 71f2 3c3f 5005 533f
00000010: c7df 323f 92a3 5a3f fa5c 7a3f fd1c 543f
00000020: 7ca8 423f 8313 063f f492 013f 9c4c 1f3f
00000030: 6a70 9a3f c62a ef3e ce2d 443f b270 243f
00000040: 6b82 5b3f 776f c13e 67b2 8e3f b3e9 583f
00000050: 81d9 0b3f 3bef 1d3f d453 013f fa4a 873f
00000060: bba7 5b3f 3ccb 283f c6f2 4f3f d923 3e3f
00000070: d339 193f 8f4d 3a3f 1302 533f bb94 5a3f
0.43585044 0.9929888 0.73807436 0.8242998 0.6987271 0.8540584 0.9779812 0.8285673
0.76038337 0.5237352 0.5061486 0.6222627 1.2065556 0.4671232 0.7663239 0.6423446
0.8574588 0.37780353 1.1148194 0.84731597 0.5462876 0.6169316 0.50518537 1.0569756
0.8580281 0.6593511 0.8122982 0.7427345 0.5985386 0.72774595 0.8242504 0.85383195

conv_block5.c.weight f4 [32, 32, 3]
00000000: 9f1f 00bc 7db0 ce3c 848b 85bb c514 babc
00000010: 0f18 ca3d 1f3f 7b3d b5be b1bd 943a f23d
00000020: c063 a53c 785a b0bc 4d30 27bd a9f1 953c
00000030: 6d5a 56bc bd52 ccbb e98b cdbc 7e6e ce3d
00000040: ffba 08be 71ce 903d c252 003d 5c7c efbc
00000050: 6655 f0bc 5bfe 09bc 74bd 60bd 0718 663d
00000060: 5343 c6bd f683 7a3d b352 b63d ed62 273d
00000070: 80c3 353d 1c6f 843c e54c 14be 278f c83d
00000080: d530 b93d 0207 873d a257 0c3d 30a9 4abb
00000090: 0cff 57bc cff7 2d3c 9e59 663d 92e5 333d
000000a0: 1df7 7cbd f0b9 60bd 3d41 573d 0869 073d
000000b0: 894d 1ebe 0c05 34be dcb0 ed3c 5cfb 863d
000000c0: c65e 09be 51e3 43bd c6af a63d dfb2 cb3d
000000d0: be86 623d e47b 4c3b 2448 c73d 30d0 11bd
000000e0: c9c9 6cbc 50aa 3ebc 4464 e5bb 309a 5d3d
000000f0: 595f c6bd 1d36 363d 323f cb3d 52f0 a43c
00000100: 08e5 073e 6ef0 1a3d 504d 03be 3f0c a9bc
00000110: a6e8 6fbd 1530 923d 0bd0 e4bd ebf5 aa3d
00000120: af7d 76bb 6bad 00bc 9f54 0ebc 4cf7 02be
00000130: d385 e83c 5518 d93d 30eb 9ebd e9e7 33be
00000140: 6a91 a23d 3fa2 e13d 220d 063e e5ed 03be
00000150: 58fe 9ebd fe07 a73d e7ac 87bd e695 143d
00000160: bb5f 88bd c495 c33a 5562 ebbc 46da f73c
00000170: 2f9c cabd a4b9 b23c 00d4 e8bc b648 dcbd
00000180: cd32 bebd 393b b2bc bbe8 8dbc 4f0d 0cbe
00000190: b833 87bd 2561 bfbc ea0c aebd 307a 03bd
000001a0: fa80 e4bd 14d8 8abc eaa8 8dbd 56af 953d
000001b0: c1b1 a4bc 7a45 b33d 7fe6 163d 142a c43d
000001c0: 78e2 7e3c 14a2 c5bc caf4 3438 cf8e a9bc
000001d0: d06b 5c3d 6a6a 913d 162d 0a3d 6d1f e9bd
000001e0: 2de0 83bd aed1 90bd 6e44 e9bc 4061 23bd
000001f0: 6e65 883d 06e8 f1bd ce69 06be da91 f0bc
00000200: f2a7 0dbd c0c2 bcbd 5308 07bd 3e45 dc3d
00000210: e4ba 323c 096d 103b 8d9d 4ebd aa90 15be
00000220: 4f9a 4fbd b2f9 fd3d d8ad 8bbc ae0a b1bc
00000230: 5715 133e 74a4 c7bd 17ac 8d3c 0d08 093c
00000240: 984a 77bd 4016 033d 93a1 3c3c aefe 80bc
00000250: 0ecc c63d 8b2c a23b 0861 973d 9a28 84bc
00000260: 447c 30bd 6db2 37bd bf2b f5bb fca1 05bc
00000270: 2ba0 4fbe 419f eebb 5c98 3b3c cba2 bcbd
00000280: 109d 86bd 0ceb 81bb 9396 dbbd d305 803d
00000290: cfee 4e3c d621 7dbd c4e2 933d f7ce 2bbd
000002a0: 3427 eabd 135d 2bbc b6b4 e4bc d400 dfbd
000002b0: 1806 abbd d751 e4bc 68dc a7bd 307e 323d
000002c0: 7d89 a13a 556a c7bc 310a 16bd 803e c33d
000002d0: b63b ccbd 6677 0bbd be3a b43d 6475 923c
000002e0: c1c3 d6bb d408 ef3c fc3e 9e3d 46e3 e3bd
000002f0: ad38 28bd 7152 00bd cc56 a53c 9c33 133e
00000300: e5ba 50bd 6fa0 25bd 29e6 dabd b93c 2e3d
00000310: 8da1 f9bc 845d 47bb f7f5 1fbc e03d fdbc
00000320: 72be dcbd 0522 1bbc 99dd 81bd 4b6c 1bbe
00000330: bd1d f73d 860e ffbc b706 81bb 904d edbc
00000340: 1c2b a0bd 83d2 283e 0513 363d 598b 02bd
00000350: 8822 14bd 114c aebd 21e3 5cbc 3bcc bf3c
00000360: a7b3 86bd 41c2 7a3c e65e a8bd ea5e 10be
00000370: 1bca 403d 40b8 e8bb 741e 00bd 32c3 a43c
00000380: 84e5 743d c867 e73c 594c d4bb 98a7 8eba
00000390: 3c46 b9bd f773 353d d939 163e 64b1 9f3c
000003a0: 99a3 85bd 7916 33bb 6785 823d a551 93bd
000003b0: 3583 e0bd 7fce e03c 94d4 44bc 4ab0 333c
000003c0: a958 e03d 2705 8d3c 62b0 23be 3d04 18be
000003d0: 34d8 90bd 3e98 47bd 0bc2 01be 6795 6abc
000003e0: 1973 e83d b426 02be 3414 713d ba4a 6e3d
000003f0: 5a23 1bbd f653 343b c715 46bd 8f33 cbbd
-0.007820039 0.02523064 -0.0040754694 -0.022714982 0.0986787 0.061339494 -0.086789526 0.11827579
0.020189166 -0.021527514 -0.040817548 0.01830371 -0.013083083 -0.006235449 -0.025091128 0.100796685
-0.13352583 0.070706256 0.031328924 -0.029234104 -0.029337596 -0.0084224595 -0.054868177 0.056175258
-0.0968081 0.061161004 0.089024924 0.040865827 0.044375896 0.016166262 -0.14482458 0.09792929
0.09042517 0.065931335 0.03426326 -0.0030923598 -0.0131833665 0.010618164 0.05623781 0.043920107
-0.061759103 -0.054864824 0.05255245 0.03305915 -0.15459265 -0.1758005 0.029014997 0.06590912
-0.1341506 -0.047824208 0.08138995 0.09946226 0.05530428 0.0031201774 0.097305566 -0.035598934
-0.014452406 -0.011637285 -0.007000478 0.054102123 -0.09686155 0.0444852 0.09924163 0.020134125
0.13270962 0.037826948 -0.12822461 -0.020635722 -0.05857148 0.07138077 -0.111724935 0.083476864
-0.0037611534 -0.007853846 -0.008687167 -0.12789649 0.028384125 0.10600344 -0.07759702 -0.17568935
0.07937892 0.11017274 0.13090947 -0.12883718 -0.07763356 0.08155821 -0.066247754 0.036275767
-0.06658884 0.0014921953 -0.028733412 0.030255448 -0.09893071 0.021817036 -0.028421402 -0.10756056
-0.09287033 -0.021756755 -0.017322889 -0.13676952 -0.066016614 -0.023361752 -0.08498557 -0.03209895
-0.11157413 -0.016948737 -0.069169834 0.07308833 -0.02010429 0.08753486 0.036840912 0.09578338
0.015556924 -0.024125136 4.314332e-05 -0.02069798 0.053813756 0.07100375 0.033734404 -0.11382947
-0.064392425 -0.07071243 -0.028475013 -0.039887667 0.06659971 -0.11811833 -0.13126299 -0.029366422
-0.034583993 -0.09216833 -0.032966923 0.107553944 0.010908816 0.0022037646 -0.05044322 -0.14605966
-0.05068427 0.12401141 -0.017050669 -0.021611538 0.14363609 -0.09748164 0.017293973 0.008363736
-0.060373873 0.03200364 0.011513132 -0.01574644 0.09706889 0.0049491576 0.07391554 -0.016132642
-0.04308726 -0.044847894 -0.0074820216 -0.008156296 -0.20275943 -0.007282168 0.0114498995 -0.09210738
-0.06572926 -0.0039647873 -0.10722079 0.06251111 0.012630179 -0.061799847 0.072209865 -0.041945424
-0.11433259 -0.010459202 -0.027918201 -0.1088883 -0.08350772 -0.027871056 -0.08196336 0.043577373
0.00123243 -0.024342695 -0.036630813 0.09533405 -0.099723265 -0.034049414 0.08800267 0.017878242
-0.0065540974 0.029179014 0.07726857 -0.11127333 -0.041069675 -0.031328622 0.02018299 0.14375156
-0.050959487 -0.040436205 -0.10688431 0.04253838 -0.030472541 -0.003042073 -0.009763232 -0.030913293
-0.10778512 -0.00946856 -0.063410945 -0.15178029 0.12066219 -0.031134855 -0.003937568 -0.028967649
-0.078207225 0.16486554 0.044451732 -0.031871174 -0.036165744 -0.08510602 -0.013481886 0.023412814
-0.06577235 0.015305103 -0.082212254 -0.14098707 0.047067743 -0.0071020424 -0.031279042 0.020112608
0.059789196 0.028247729 -0.006478828 -0.0010883687 -0.09046599 0.044300046 0.14670505 0.019493766
-0.065253444 -0.0027326627 0.06373101 -0.07193307 -0.10962526 0.027442215 -0.012013573 0.010967324
0.109544106 0.01721437 -0.15985253 -0.14845367 -0.070724875 -0.048729174 -0.12671678 -0.014317847
0.11350078 -0.12710077 0.058857158 0.058176734 -0.03787551 0.0027515865 -0.048360612 -0.099219434

conv_block5.c.bias f4 [32]
00000000: d957 78b5 a991 7e37 a7ae 8bb6 64a4 0835
00000010: cef4 0a36 471e a536 68de 72b7 b23f 8f36
00000020: ee34 c434 68ce ac36 30e2 c8b5 c001 31b6
00000030: 580c 2736 509b 8b37 be2e 6034 a5ed 0cb7
00000040: 4a7f b3b6 a600 8536 899d 9bb6 6ce2 0bb6
00000050: aab0 4835 a80e 1fb7 5413 19b6 45f7 cc35
00000060: fc67 2ab6 5456 1f37 82a9 5336 20db 68b4
00000070: 1a4c 8d36 1504 1fb5 6a3c 10b6 1c68 5f37
-9.2515035e-07 1.5173494e-05 -4.162855e-06 5.090317e-07 2.0706098e-06 4.920908e-06 -1.4476107e-05 4.269147e-06
3.6546356e-07 5.1500283e-06 -1.496699e-06 -2.6376074e-06 2.4892124e-06 1.6642414e-05 2.087863e-07 -8.399981e-06
-5.349434e-06 3.9637844e-06 -4.6376995e-06 -2.084441e-06 7.4762886e-07 -9.480551e-06 -2.2810027e-06 1.5271149e-06
-2.53925e-06 9.497238e-06 3.1540117e-06 -2.1686401e-07 4.210987e-06 -5.9238056e-07 -2.1492838e-06 1.3316076e-05

conv_block5.bn.weight f4 [32]
00000000: 6ef0 3d3f 6361 593f fd53 713f c71e 5e3f
00000010: bb5d 473f d032 383f e2c4 373f b4f4 333f
00000020: ea0a 413f 5d5a 173f 47e0 313f 2b84 373f
00000030: 7804 2d3f 78c1 543f 429a 513f 8165 5c3f
00000040: cc4c 5e3f ff7f 483f 9b1c 443f f1e7 3a3f
00000050: 1016 3b3f 2e4a 443f 3fa6 573f b5ed 363f
00000060: 6776 2b3f 0f93 6a3f d637 5b3f e426 313f
00000070: 787f 313f 2ef1 413f 73e7 263f 7d87 2e3f
0.7419499 0.84914225 0.9426878 0.8676571 0.77877396 0.71952534 0.71784794 0.7029526
0.7540728 0.5912226 0.69482845 0.7168605 0.67584944 0.8310771 0.81876004 0.8609238
0.8683593 0.78320307 0.7660615 0.73010164 0.7308054 0.7667569 0.84238046 0.7145646
0.6697754 0.91630644 0.85632074 0.6919997 0.69335127 0.75758636 0.65196913 0.6817549

conv_block5.bn.bias f4 [32]
00000000: 6ad6 52be dfeb b5bd 0cc6 06be 1e27 04be
00000010: 9a3e 4ebd 69cf d1bc cde0 00be 8aef 61be
00000020: ac9e b4bd d5e2 bebd 8db4 56be c11c 31be
00000030: d8a1 a1bd 27d8 833c fd42 fbbd 78cd 41be
00000040: 8751 19be 0578 85be 0bf8 15be f95f 533b
00000050: 2fdf 00bd 7bb7 16be c744 4abe 153e d1bd
00000060: 8910 563d 6cee 14be c362 21bd e160 df3c
00000070: 19e0 cbbd 9e3f e9bd 52ac 3bbe 38bf babd
-0.20589605 -0.088828795 -0.13161486 -0.12905547 -0.05035267 -0.025611596 -0.12585755 -0.22064033
-0.08819327 -0.093206085 -0.20967312 -0.17296125 -0.07892197 0.01609428 -0.122686364 -0.18926036
-0.14972506 -0.2606813 -0.14645402 0.003225325 -0.031462844 -0.1471843 -0.19752799 -0.10216919
0.052261863 -0.14544076 -0.039400827 0.027267875 -0.099548526 -0.11389087 -0.18327454 -0.09118503

conv_block5.bn.running_mean f4 [32]
00000000: 7f91 a43b 7fae c2be d6fa d7be f338 ecbe
00000010: 4105 09bf 3c0a fdbd 0a49 09be e911 d73e
00000020: 6dd6 e9be 1de7 b6be c6c1 f13e 65a5 e03d
00000030: 5000 18be dc48 10bf fbf9 f2be 4266 01bf
00000040: 9d48 29bf f3d7 25bf b64d 79be 6952 88bd
00000050: 6c98 01ba 77a7 87be f7a3 97be 32ed 2bbe
00000060: 3c45 bcbe aa63 1fbf 81c3 09bf 9d5f 4fbc
00000070: 82e6 37be bbdc 0f3f 8529 07be bafb 9dbe
0.0050222273 -0.38023755 -0.4218356 -0.461372 -0.5352364 -0.12355468 -0.13406768 0.42005852
-0.45671406 -0.357232 0.4721815 0.109690465 -0.14843869 -0.56361175 -0.47456345 -0.5054666
-0.66126424 -0.6478264 -0.2434605 -0.066563435 -0.0004943672 -0.26494953 -0.29617283 -0.16789702
-0.36771572 -0.6226145 -0.5381394 -0.012657073 -0.17959026 0.5619618 -0.13199432 -0.30856115

conv_block5.bn.running_var f4 [32]
00000000: 2494 2f3f 0be9 563f c3e4 203f 8619 293f
00000010: 6e1c 7b3f 84ad 493f 437d 1e3f 2c6b 1c3f
00000020: 9d20 433f 00e3 203f 9342 113f 4280 303f
00000030: 48ac ea3e e440 353f 2f05 853f 4db2 223f
00000040: da3c 603f c8dc c03e 8954 af3e 0c5f 263f
00000050: 7f7d c83e 1b10 e83e 811f 2f3f d3a5 443f
00000060: b161 453f 12aa 8f3f f390 313f 0021 4b3f
00000070: 3a9a 0f3f e0de 3b3f b48b 1a3f 662d 203f
0.6858542 0.83949345 0.6284906 0.6605457 0.98090255 0.7878039 0.61909884 0.6110103
0.7622164 0.62846375 0.5674221 0.68945706 0.45834565 0.7080214 1.0392207 0.63553315
0.8759285 0.37668443 0.34244183 0.6498878 0.39158246 0.45324787 0.68407446 0.7681553
0.7710219 1.1223776 0.693618 0.7934723 0.56094706 0.73386955 0.6036942 0.6256927
